Model: "functional_3"
┌─────────────────────┬───────────────────┬─────────┬──────────────────────┐
│ Layer (type)        │ Output Shape      │ Param # │ Connected to         │
├─────────────────────┼───────────────────┼─────────┼──────────────────────┤
│ input_layer_1       │ (None, 401, 1)    │       0 │ -                    │
│ (InputLayer)        │                   │         │                      │
├─────────────────────┼───────────────────┼─────────┼──────────────────────┤
│ conv1d_2 (Conv1D)   │ (None, 201, 32)   │     160 │ input_layer_1[0][0]  │
├─────────────────────┼───────────────────┼─────────┼──────────────────────┤
│ batch_normalizatio… │ (None, 201, 32)   │     128 │ conv1d_2[0][0]       │
│ (BatchNormalizatio… │                   │         │                      │
├─────────────────────┼───────────────────┼─────────┼──────────────────────┤
│ leaky_re_lu_39      │ (None, 201, 32)   │       0 │ batch_normalization… │
│ (LeakyReLU)         │                   │         │                      │
├─────────────────────┼───────────────────┼─────────┼──────────────────────┤
│ conv1d_3 (Conv1D)   │ (None, 201, 32)   │   4,128 │ leaky_re_lu_39[0][0] │
├─────────────────────┼───────────────────┼─────────┼──────────────────────┤
│ batch_normalizatio… │ (None, 201, 32)   │     128 │ conv1d_3[0][0]       │
│ (BatchNormalizatio… │                   │         │                      │
├─────────────────────┼───────────────────┼─────────┼──────────────────────┤
│ leaky_re_lu_40      │ (None, 201, 32)   │       0 │ batch_normalization… │
│ (LeakyReLU)         │                   │         │                      │
├─────────────────────┼───────────────────┼─────────┼──────────────────────┤
│ conv1d_4 (Conv1D)   │ (None, 201, 32)   │   3,104 │ leaky_re_lu_40[0][0] │
├─────────────────────┼───────────────────┼─────────┼──────────────────────┤
│ batch_normalizatio… │ (None, 201, 32)   │     128 │ conv1d_4[0][0]       │
│ (BatchNormalizatio… │                   │         │                      │
├─────────────────────┼───────────────────┼─────────┼──────────────────────┤
│ leaky_re_lu_41      │ (None, 201, 32)   │       0 │ batch_normalization… │
│ (LeakyReLU)         │                   │         │                      │
├─────────────────────┼───────────────────┼─────────┼──────────────────────┤
│ max_pooling1d_1     │ (None, 100, 32)   │       0 │ leaky_re_lu_41[0][0] │
│ (MaxPooling1D)      │                   │         │                      │
├─────────────────────┼───────────────────┼─────────┼──────────────────────┤
│ batch_normalizatio… │ (None, 100, 32)   │     128 │ max_pooling1d_1[0][… │
│ (BatchNormalizatio… │                   │         │                      │
├─────────────────────┼───────────────────┼─────────┼──────────────────────┤
│ leaky_re_lu_42      │ (None, 100, 32)   │       0 │ batch_normalization… │
│ (LeakyReLU)         │                   │         │                      │
├─────────────────────┼───────────────────┼─────────┼──────────────────────┤
│ conv1d_6 (Conv1D)   │ (None, 100, 64)   │   6,208 │ leaky_re_lu_42[0][0] │
├─────────────────────┼───────────────────┼─────────┼──────────────────────┤
│ batch_normalizatio… │ (None, 100, 64)   │     256 │ conv1d_6[0][0]       │
│ (BatchNormalizatio… │                   │         │                      │
├─────────────────────┼───────────────────┼─────────┼──────────────────────┤
│ leaky_re_lu_43      │ (None, 100, 64)   │       0 │ batch_normalization… │
│ (LeakyReLU)         │                   │         │                      │
├─────────────────────┼───────────────────┼─────────┼──────────────────────┤
│ conv1d_7 (Conv1D)   │ (None, 100, 64)   │  12,352 │ leaky_re_lu_43[0][0] │
├─────────────────────┼───────────────────┼─────────┼──────────────────────┤
│ global_average_poo… │ (None, 64)        │       0 │ conv1d_7[0][0]       │
│ (GlobalAveragePool… │                   │         │                      │
├─────────────────────┼───────────────────┼─────────┼──────────────────────┤
│ dense_24 (Dense)    │ (None, 4)         │     260 │ global_average_pool… │
├─────────────────────┼───────────────────┼─────────┼──────────────────────┤
│ leaky_re_lu_44      │ (None, 4)         │       0 │ dense_24[0][0]       │
│ (LeakyReLU)         │                   │         │                      │
├─────────────────────┼───────────────────┼─────────┼──────────────────────┤
│ dense_25 (Dense)    │ (None, 64)        │     320 │ leaky_re_lu_44[0][0] │
├─────────────────────┼───────────────────┼─────────┼──────────────────────┤
│ activation_12       │ (None, 64)        │       0 │ dense_25[0][0]       │
│ (Activation)        │                   │         │                      │
├─────────────────────┼───────────────────┼─────────┼──────────────────────┤
│ multiply_12         │ (None, 100, 64)   │       0 │ conv1d_7[0][0],      │
│ (Multiply)          │                   │         │ activation_12[0][0]  │
├─────────────────────┼───────────────────┼─────────┼──────────────────────┤
│ conv1d_5 (Conv1D)   │ (None, 100, 64)   │   2,112 │ max_pooling1d_1[0][… │
├─────────────────────┼───────────────────┼─────────┼──────────────────────┤
│ add_8 (Add)         │ (None, 100, 64)   │       0 │ multiply_12[0][0],   │
│                     │                   │         │ conv1d_5[0][0]       │
├─────────────────────┼───────────────────┼─────────┼──────────────────────┤
│ batch_normalizatio… │ (None, 100, 64)   │     256 │ add_8[0][0]          │
│ (BatchNormalizatio… │                   │         │                      │
├─────────────────────┼───────────────────┼─────────┼──────────────────────┤
│ leaky_re_lu_45      │ (None, 100, 64)   │       0 │ batch_normalization… │
│ (LeakyReLU)         │                   │         │                      │
├─────────────────────┼───────────────────┼─────────┼──────────────────────┤
│ conv1d_8 (Conv1D)   │ (None, 100, 64)   │  12,352 │ leaky_re_lu_45[0][0] │
├─────────────────────┼───────────────────┼─────────┼──────────────────────┤
│ batch_normalizatio… │ (None, 100, 64)   │     256 │ conv1d_8[0][0]       │
│ (BatchNormalizatio… │                   │         │                      │
├─────────────────────┼───────────────────┼─────────┼──────────────────────┤
│ leaky_re_lu_46      │ (None, 100, 64)   │       0 │ batch_normalization… │
│ (LeakyReLU)         │                   │         │                      │
├─────────────────────┼───────────────────┼─────────┼──────────────────────┤
│ conv1d_9 (Conv1D)   │ (None, 100, 64)   │  12,352 │ leaky_re_lu_46[0][0] │
├─────────────────────┼───────────────────┼─────────┼──────────────────────┤
│ global_average_poo… │ (None, 64)        │       0 │ conv1d_9[0][0]       │
│ (GlobalAveragePool… │                   │         │                      │
├─────────────────────┼───────────────────┼─────────┼──────────────────────┤
│ dense_26 (Dense)    │ (None, 4)         │     260 │ global_average_pool… │
├─────────────────────┼───────────────────┼─────────┼──────────────────────┤
│ leaky_re_lu_47      │ (None, 4)         │       0 │ dense_26[0][0]       │
│ (LeakyReLU)         │                   │         │                      │
├─────────────────────┼───────────────────┼─────────┼──────────────────────┤
│ dense_27 (Dense)    │ (None, 64)        │     320 │ leaky_re_lu_47[0][0] │
├─────────────────────┼───────────────────┼─────────┼──────────────────────┤
│ activation_13       │ (None, 64)        │       0 │ dense_27[0][0]       │
│ (Activation)        │                   │         │                      │
├─────────────────────┼───────────────────┼─────────┼──────────────────────┤
│ multiply_13         │ (None, 100, 64)   │       0 │ conv1d_9[0][0],      │
│ (Multiply)          │                   │         │ activation_13[0][0]  │
├─────────────────────┼───────────────────┼─────────┼──────────────────────┤
│ add_9 (Add)         │ (None, 100, 64)   │       0 │ multiply_13[0][0],   │
│                     │                   │         │ add_8[0][0]          │
├─────────────────────┼───────────────────┼─────────┼──────────────────────┤
│ concatenate_5       │ (None, 100, 96)   │       0 │ add_9[0][0],         │
│ (Concatenate)       │                   │         │ max_pooling1d_1[0][… │
├─────────────────────┼───────────────────┼─────────┼──────────────────────┤
│ batch_normalizatio… │ (None, 100, 96)   │     384 │ concatenate_5[0][0]  │
│ (BatchNormalizatio… │                   │         │                      │
├─────────────────────┼───────────────────┼─────────┼──────────────────────┤
│ leaky_re_lu_48      │ (None, 100, 96)   │       0 │ batch_normalization… │
│ (LeakyReLU)         │                   │         │                      │
├─────────────────────┼───────────────────┼─────────┼──────────────────────┤
│ conv1d_10 (Conv1D)  │ (None, 100, 48)   │   4,656 │ leaky_re_lu_48[0][0] │
├─────────────────────┼───────────────────┼─────────┼──────────────────────┤
│ average_pooling1d_5 │ (None, 50, 48)    │       0 │ conv1d_10[0][0]      │
│ (AveragePooling1D)  │                   │         │                      │
├─────────────────────┼───────────────────┼─────────┼──────────────────────┤
│ global_average_poo… │ (None, 48)        │       0 │ average_pooling1d_5… │
│ (GlobalAveragePool… │                   │         │                      │
├─────────────────────┼───────────────────┼─────────┼──────────────────────┤
│ dense_28 (Dense)    │ (None, 3)         │     147 │ global_average_pool… │
├─────────────────────┼───────────────────┼─────────┼──────────────────────┤
│ leaky_re_lu_49      │ (None, 3)         │       0 │ dense_28[0][0]       │
│ (LeakyReLU)         │                   │         │                      │
├─────────────────────┼───────────────────┼─────────┼──────────────────────┤
│ dense_29 (Dense)    │ (None, 48)        │     192 │ leaky_re_lu_49[0][0] │
├─────────────────────┼───────────────────┼─────────┼──────────────────────┤
│ activation_14       │ (None, 48)        │       0 │ dense_29[0][0]       │
│ (Activation)        │                   │         │                      │
├─────────────────────┼───────────────────┼─────────┼──────────────────────┤
│ multiply_14         │ (None, 50, 48)    │       0 │ average_pooling1d_5… │
│ (Multiply)          │                   │         │ activation_14[0][0]  │
├─────────────────────┼───────────────────┼─────────┼──────────────────────┤
│ batch_normalizatio… │ (None, 50, 48)    │     192 │ multiply_14[0][0]    │
│ (BatchNormalizatio… │                   │         │                      │
├─────────────────────┼───────────────────┼─────────┼──────────────────────┤
│ leaky_re_lu_50      │ (None, 50, 48)    │       0 │ batch_normalization… │
│ (LeakyReLU)         │                   │         │                      │
├─────────────────────┼───────────────────┼─────────┼──────────────────────┤
│ conv1d_12 (Conv1D)  │ (None, 50, 128)   │  18,560 │ leaky_re_lu_50[0][0] │
├─────────────────────┼───────────────────┼─────────┼──────────────────────┤
│ batch_normalizatio… │ (None, 50, 128)   │     512 │ conv1d_12[0][0]      │
│ (BatchNormalizatio… │                   │         │                      │
├─────────────────────┼───────────────────┼─────────┼──────────────────────┤
│ leaky_re_lu_51      │ (None, 50, 128)   │       0 │ batch_normalization… │
│ (LeakyReLU)         │                   │         │                      │
├─────────────────────┼───────────────────┼─────────┼──────────────────────┤
│ conv1d_13 (Conv1D)  │ (None, 50, 128)   │  49,280 │ leaky_re_lu_51[0][0] │
├─────────────────────┼───────────────────┼─────────┼──────────────────────┤
│ global_average_poo… │ (None, 128)       │       0 │ conv1d_13[0][0]      │
│ (GlobalAveragePool… │                   │         │                      │
├─────────────────────┼───────────────────┼─────────┼──────────────────────┤
│ dense_30 (Dense)    │ (None, 8)         │   1,032 │ global_average_pool… │
├─────────────────────┼───────────────────┼─────────┼──────────────────────┤
│ leaky_re_lu_52      │ (None, 8)         │       0 │ dense_30[0][0]       │
│ (LeakyReLU)         │                   │         │                      │
├─────────────────────┼───────────────────┼─────────┼──────────────────────┤
│ dense_31 (Dense)    │ (None, 128)       │   1,152 │ leaky_re_lu_52[0][0] │
├─────────────────────┼───────────────────┼─────────┼──────────────────────┤
│ activation_15       │ (None, 128)       │       0 │ dense_31[0][0]       │
│ (Activation)        │                   │         │                      │
├─────────────────────┼───────────────────┼─────────┼──────────────────────┤
│ multiply_15         │ (None, 50, 128)   │       0 │ conv1d_13[0][0],     │
│ (Multiply)          │                   │         │ activation_15[0][0]  │
├─────────────────────┼───────────────────┼─────────┼──────────────────────┤
│ conv1d_11 (Conv1D)  │ (None, 50, 128)   │   6,272 │ multiply_14[0][0]    │
├─────────────────────┼───────────────────┼─────────┼──────────────────────┤
│ add_10 (Add)        │ (None, 50, 128)   │       0 │ multiply_15[0][0],   │
│                     │                   │         │ conv1d_11[0][0]      │
├─────────────────────┼───────────────────┼─────────┼──────────────────────┤
│ batch_normalizatio… │ (None, 50, 128)   │     512 │ add_10[0][0]         │
│ (BatchNormalizatio… │                   │         │                      │
├─────────────────────┼───────────────────┼─────────┼──────────────────────┤
│ leaky_re_lu_53      │ (None, 50, 128)   │       0 │ batch_normalization… │
│ (LeakyReLU)         │                   │         │                      │
├─────────────────────┼───────────────────┼─────────┼──────────────────────┤
│ conv1d_14 (Conv1D)  │ (None, 50, 128)   │  49,280 │ leaky_re_lu_53[0][0] │
├─────────────────────┼───────────────────┼─────────┼──────────────────────┤
│ batch_normalizatio… │ (None, 50, 128)   │     512 │ conv1d_14[0][0]      │
│ (BatchNormalizatio… │                   │         │                      │
├─────────────────────┼───────────────────┼─────────┼──────────────────────┤
│ leaky_re_lu_54      │ (None, 50, 128)   │       0 │ batch_normalization… │
│ (LeakyReLU)         │                   │         │                      │
├─────────────────────┼───────────────────┼─────────┼──────────────────────┤
│ conv1d_15 (Conv1D)  │ (None, 50, 128)   │  49,280 │ leaky_re_lu_54[0][0] │
├─────────────────────┼───────────────────┼─────────┼──────────────────────┤
│ global_average_poo… │ (None, 128)       │       0 │ conv1d_15[0][0]      │
│ (GlobalAveragePool… │                   │         │                      │
├─────────────────────┼───────────────────┼─────────┼──────────────────────┤
│ dense_32 (Dense)    │ (None, 8)         │   1,032 │ global_average_pool… │
├─────────────────────┼───────────────────┼─────────┼──────────────────────┤
│ leaky_re_lu_55      │ (None, 8)         │       0 │ dense_32[0][0]       │
│ (LeakyReLU)         │                   │         │                      │
├─────────────────────┼───────────────────┼─────────┼──────────────────────┤
│ dense_33 (Dense)    │ (None, 128)       │   1,152 │ leaky_re_lu_55[0][0] │
├─────────────────────┼───────────────────┼─────────┼──────────────────────┤
│ activation_16       │ (None, 128)       │       0 │ dense_33[0][0]       │
│ (Activation)        │                   │         │                      │
├─────────────────────┼───────────────────┼─────────┼──────────────────────┤
│ multiply_16         │ (None, 50, 128)   │       0 │ conv1d_15[0][0],     │
│ (Multiply)          │                   │         │ activation_16[0][0]  │
├─────────────────────┼───────────────────┼─────────┼──────────────────────┤
│ add_11 (Add)        │ (None, 50, 128)   │       0 │ multiply_16[0][0],   │
│                     │                   │         │ add_10[0][0]         │
├─────────────────────┼───────────────────┼─────────┼──────────────────────┤
│ concatenate_6       │ (None, 50, 176)   │       0 │ add_11[0][0],        │
│ (Concatenate)       │                   │         │ multiply_14[0][0]    │
├─────────────────────┼───────────────────┼─────────┼──────────────────────┤
│ batch_normalizatio… │ (None, 50, 176)   │     704 │ concatenate_6[0][0]  │
│ (BatchNormalizatio… │                   │         │                      │
├─────────────────────┼───────────────────┼─────────┼──────────────────────┤
│ leaky_re_lu_56      │ (None, 50, 176)   │       0 │ batch_normalization… │
│ (LeakyReLU)         │                   │         │                      │
├─────────────────────┼───────────────────┼─────────┼──────────────────────┤
│ conv1d_16 (Conv1D)  │ (None, 50, 88)    │  15,576 │ leaky_re_lu_56[0][0] │
├─────────────────────┼───────────────────┼─────────┼──────────────────────┤
│ average_pooling1d_6 │ (None, 25, 88)    │       0 │ conv1d_16[0][0]      │
│ (AveragePooling1D)  │                   │         │                      │
├─────────────────────┼───────────────────┼─────────┼──────────────────────┤
│ global_average_poo… │ (None, 88)        │       0 │ average_pooling1d_6… │
│ (GlobalAveragePool… │                   │         │                      │
├─────────────────────┼───────────────────┼─────────┼──────────────────────┤
│ dense_34 (Dense)    │ (None, 5)         │     445 │ global_average_pool… │
├─────────────────────┼───────────────────┼─────────┼──────────────────────┤
│ leaky_re_lu_57      │ (None, 5)         │       0 │ dense_34[0][0]       │
│ (LeakyReLU)         │                   │         │                      │
├─────────────────────┼───────────────────┼─────────┼──────────────────────┤
│ dense_35 (Dense)    │ (None, 88)        │     528 │ leaky_re_lu_57[0][0] │
├─────────────────────┼───────────────────┼─────────┼──────────────────────┤
│ activation_17       │ (None, 88)        │       0 │ dense_35[0][0]       │
│ (Activation)        │                   │         │                      │
├─────────────────────┼───────────────────┼─────────┼──────────────────────┤
│ multiply_17         │ (None, 25, 88)    │       0 │ average_pooling1d_6… │
│ (Multiply)          │                   │         │ activation_17[0][0]  │
├─────────────────────┼───────────────────┼─────────┼──────────────────────┤
│ batch_normalizatio… │ (None, 25, 88)    │     352 │ multiply_17[0][0]    │
│ (BatchNormalizatio… │                   │         │                      │
├─────────────────────┼───────────────────┼─────────┼──────────────────────┤
│ leaky_re_lu_58      │ (None, 25, 88)    │       0 │ batch_normalization… │
│ (LeakyReLU)         │                   │         │                      │
├─────────────────────┼───────────────────┼─────────┼──────────────────────┤
│ conv1d_18 (Conv1D)  │ (None, 25, 256)   │  67,840 │ leaky_re_lu_58[0][0] │
├─────────────────────┼───────────────────┼─────────┼──────────────────────┤
│ batch_normalizatio… │ (None, 25, 256)   │   1,024 │ conv1d_18[0][0]      │
│ (BatchNormalizatio… │                   │         │                      │
├─────────────────────┼───────────────────┼─────────┼──────────────────────┤
│ leaky_re_lu_59      │ (None, 25, 256)   │       0 │ batch_normalization… │
│ (LeakyReLU)         │                   │         │                      │
├─────────────────────┼───────────────────┼─────────┼──────────────────────┤
│ conv1d_19 (Conv1D)  │ (None, 25, 256)   │ 196,864 │ leaky_re_lu_59[0][0] │
├─────────────────────┼───────────────────┼─────────┼──────────────────────┤
│ global_average_poo… │ (None, 256)       │       0 │ conv1d_19[0][0]      │
│ (GlobalAveragePool… │                   │         │                      │
├─────────────────────┼───────────────────┼─────────┼──────────────────────┤
│ dense_36 (Dense)    │ (None, 16)        │   4,112 │ global_average_pool… │
├─────────────────────┼───────────────────┼─────────┼──────────────────────┤
│ leaky_re_lu_60      │ (None, 16)        │       0 │ dense_36[0][0]       │
│ (LeakyReLU)         │                   │         │                      │
├─────────────────────┼───────────────────┼─────────┼──────────────────────┤
│ dense_37 (Dense)    │ (None, 256)       │   4,352 │ leaky_re_lu_60[0][0] │
├─────────────────────┼───────────────────┼─────────┼──────────────────────┤
│ activation_18       │ (None, 256)       │       0 │ dense_37[0][0]       │
│ (Activation)        │                   │         │                      │
├─────────────────────┼───────────────────┼─────────┼──────────────────────┤
│ multiply_18         │ (None, 25, 256)   │       0 │ conv1d_19[0][0],     │
│ (Multiply)          │                   │         │ activation_18[0][0]  │
├─────────────────────┼───────────────────┼─────────┼──────────────────────┤
│ conv1d_17 (Conv1D)  │ (None, 25, 256)   │  22,784 │ multiply_17[0][0]    │
├─────────────────────┼───────────────────┼─────────┼──────────────────────┤
│ add_12 (Add)        │ (None, 25, 256)   │       0 │ multiply_18[0][0],   │
│                     │                   │         │ conv1d_17[0][0]      │
├─────────────────────┼───────────────────┼─────────┼──────────────────────┤
│ batch_normalizatio… │ (None, 25, 256)   │   1,024 │ add_12[0][0]         │
│ (BatchNormalizatio… │                   │         │                      │
├─────────────────────┼───────────────────┼─────────┼──────────────────────┤
│ leaky_re_lu_61      │ (None, 25, 256)   │       0 │ batch_normalization… │
│ (LeakyReLU)         │                   │         │                      │
├─────────────────────┼───────────────────┼─────────┼──────────────────────┤
│ conv1d_20 (Conv1D)  │ (None, 25, 256)   │ 196,864 │ leaky_re_lu_61[0][0] │
├─────────────────────┼───────────────────┼─────────┼──────────────────────┤
│ batch_normalizatio… │ (None, 25, 256)   │   1,024 │ conv1d_20[0][0]      │
│ (BatchNormalizatio… │                   │         │                      │
├─────────────────────┼───────────────────┼─────────┼──────────────────────┤
│ leaky_re_lu_62      │ (None, 25, 256)   │       0 │ batch_normalization… │
│ (LeakyReLU)         │                   │         │                      │
├─────────────────────┼───────────────────┼─────────┼──────────────────────┤
│ conv1d_21 (Conv1D)  │ (None, 25, 256)   │ 196,864 │ leaky_re_lu_62[0][0] │
├─────────────────────┼───────────────────┼─────────┼──────────────────────┤
│ global_average_poo… │ (None, 256)       │       0 │ conv1d_21[0][0]      │
│ (GlobalAveragePool… │                   │         │                      │
├─────────────────────┼───────────────────┼─────────┼──────────────────────┤
│ dense_38 (Dense)    │ (None, 16)        │   4,112 │ global_average_pool… │
├─────────────────────┼───────────────────┼─────────┼──────────────────────┤
│ leaky_re_lu_63      │ (None, 16)        │       0 │ dense_38[0][0]       │
│ (LeakyReLU)         │                   │         │                      │
├─────────────────────┼───────────────────┼─────────┼──────────────────────┤
│ dense_39 (Dense)    │ (None, 256)       │   4,352 │ leaky_re_lu_63[0][0] │
├─────────────────────┼───────────────────┼─────────┼──────────────────────┤
│ activation_19       │ (None, 256)       │       0 │ dense_39[0][0]       │
│ (Activation)        │                   │         │                      │
├─────────────────────┼───────────────────┼─────────┼──────────────────────┤
│ multiply_19         │ (None, 25, 256)   │       0 │ conv1d_21[0][0],     │
│ (Multiply)          │                   │         │ activation_19[0][0]  │
├─────────────────────┼───────────────────┼─────────┼──────────────────────┤
│ add_13 (Add)        │ (None, 25, 256)   │       0 │ multiply_19[0][0],   │
│                     │                   │         │ add_12[0][0]         │
├─────────────────────┼───────────────────┼─────────┼──────────────────────┤
│ concatenate_7       │ (None, 25, 344)   │       0 │ add_13[0][0],        │
│ (Concatenate)       │                   │         │ multiply_17[0][0]    │
├─────────────────────┼───────────────────┼─────────┼──────────────────────┤
│ batch_normalizatio… │ (None, 25, 344)   │   1,376 │ concatenate_7[0][0]  │
│ (BatchNormalizatio… │                   │         │                      │
├─────────────────────┼───────────────────┼─────────┼──────────────────────┤
│ leaky_re_lu_64      │ (None, 25, 344)   │       0 │ batch_normalization… │
│ (LeakyReLU)         │                   │         │                      │
├─────────────────────┼───────────────────┼─────────┼──────────────────────┤
│ conv1d_22 (Conv1D)  │ (None, 25, 167)   │  57,615 │ leaky_re_lu_64[0][0] │
├─────────────────────┼───────────────────┼─────────┼──────────────────────┤
│ average_pooling1d_7 │ (None, 13, 167)   │       0 │ conv1d_22[0][0]      │
│ (AveragePooling1D)  │                   │         │                      │
├─────────────────────┼───────────────────┼─────────┼──────────────────────┤
│ global_average_poo… │ (None, 167)       │       0 │ average_pooling1d_7… │
│ (GlobalAveragePool… │                   │         │                      │
├─────────────────────┼───────────────────┼─────────┼──────────────────────┤
│ dense_40 (Dense)    │ (None, 10)        │   1,680 │ global_average_pool… │
├─────────────────────┼───────────────────┼─────────┼──────────────────────┤
│ leaky_re_lu_65      │ (None, 10)        │       0 │ dense_40[0][0]       │
│ (LeakyReLU)         │                   │         │                      │
├─────────────────────┼───────────────────┼─────────┼──────────────────────┤
│ dense_41 (Dense)    │ (None, 167)       │   1,837 │ leaky_re_lu_65[0][0] │
├─────────────────────┼───────────────────┼─────────┼──────────────────────┤
│ activation_20       │ (None, 167)       │       0 │ dense_41[0][0]       │
│ (Activation)        │                   │         │                      │
├─────────────────────┼───────────────────┼─────────┼──────────────────────┤
│ multiply_20         │ (None, 13, 167)   │       0 │ average_pooling1d_7… │
│ (Multiply)          │                   │         │ activation_20[0][0]  │
├─────────────────────┼───────────────────┼─────────┼──────────────────────┤
│ batch_normalizatio… │ (None, 13, 167)   │     668 │ multiply_20[0][0]    │
│ (BatchNormalizatio… │                   │         │                      │
├─────────────────────┼───────────────────┼─────────┼──────────────────────┤
│ leaky_re_lu_66      │ (None, 13, 167)   │       0 │ batch_normalization… │
│ (LeakyReLU)         │                   │         │                      │
├─────────────────────┼───────────────────┼─────────┼──────────────────────┤
│ conv1d_24 (Conv1D)  │ (None, 13, 512)   │ 257,024 │ leaky_re_lu_66[0][0] │
├─────────────────────┼───────────────────┼─────────┼──────────────────────┤
│ batch_normalizatio… │ (None, 13, 512)   │   2,048 │ conv1d_24[0][0]      │
│ (BatchNormalizatio… │                   │         │                      │
├─────────────────────┼───────────────────┼─────────┼──────────────────────┤
│ leaky_re_lu_67      │ (None, 13, 512)   │       0 │ batch_normalization… │
│ (LeakyReLU)         │                   │         │                      │
├─────────────────────┼───────────────────┼─────────┼──────────────────────┤
│ conv1d_25 (Conv1D)  │ (None, 13, 512)   │ 786,944 │ leaky_re_lu_67[0][0] │
├─────────────────────┼───────────────────┼─────────┼──────────────────────┤
│ global_average_poo… │ (None, 512)       │       0 │ conv1d_25[0][0]      │
│ (GlobalAveragePool… │                   │         │                      │
├─────────────────────┼───────────────────┼─────────┼──────────────────────┤
│ dense_42 (Dense)    │ (None, 32)        │  16,416 │ global_average_pool… │
├─────────────────────┼───────────────────┼─────────┼──────────────────────┤
│ leaky_re_lu_68      │ (None, 32)        │       0 │ dense_42[0][0]       │
│ (LeakyReLU)         │                   │         │                      │
├─────────────────────┼───────────────────┼─────────┼──────────────────────┤
│ dense_43 (Dense)    │ (None, 512)       │  16,896 │ leaky_re_lu_68[0][0] │
├─────────────────────┼───────────────────┼─────────┼──────────────────────┤
│ activation_21       │ (None, 512)       │       0 │ dense_43[0][0]       │
│ (Activation)        │                   │         │                      │
├─────────────────────┼───────────────────┼─────────┼──────────────────────┤
│ multiply_21         │ (None, 13, 512)   │       0 │ conv1d_25[0][0],     │
│ (Multiply)          │                   │         │ activation_21[0][0]  │
├─────────────────────┼───────────────────┼─────────┼──────────────────────┤
│ conv1d_23 (Conv1D)  │ (None, 13, 512)   │  86,016 │ multiply_20[0][0]    │
├─────────────────────┼───────────────────┼─────────┼──────────────────────┤
│ add_14 (Add)        │ (None, 13, 512)   │       0 │ multiply_21[0][0],   │
│                     │                   │         │ conv1d_23[0][0]      │
├─────────────────────┼───────────────────┼─────────┼──────────────────────┤
│ batch_normalizatio… │ (None, 13, 512)   │   2,048 │ add_14[0][0]         │
│ (BatchNormalizatio… │                   │         │                      │
├─────────────────────┼───────────────────┼─────────┼──────────────────────┤
│ leaky_re_lu_69      │ (None, 13, 512)   │       0 │ batch_normalization… │
│ (LeakyReLU)         │                   │         │                      │
├─────────────────────┼───────────────────┼─────────┼──────────────────────┤
│ conv1d_26 (Conv1D)  │ (None, 13, 512)   │ 786,944 │ leaky_re_lu_69[0][0] │
├─────────────────────┼───────────────────┼─────────┼──────────────────────┤
│ batch_normalizatio… │ (None, 13, 512)   │   2,048 │ conv1d_26[0][0]      │
│ (BatchNormalizatio… │                   │         │                      │
├─────────────────────┼───────────────────┼─────────┼──────────────────────┤
│ leaky_re_lu_70      │ (None, 13, 512)   │       0 │ batch_normalization… │
│ (LeakyReLU)         │                   │         │                      │
├─────────────────────┼───────────────────┼─────────┼──────────────────────┤
│ conv1d_27 (Conv1D)  │ (None, 13, 512)   │ 786,944 │ leaky_re_lu_70[0][0] │
├─────────────────────┼───────────────────┼─────────┼──────────────────────┤
│ global_average_poo… │ (None, 512)       │       0 │ conv1d_27[0][0]      │
│ (GlobalAveragePool… │                   │         │                      │
├─────────────────────┼───────────────────┼─────────┼──────────────────────┤
│ dense_44 (Dense)    │ (None, 32)        │  16,416 │ global_average_pool… │
├─────────────────────┼───────────────────┼─────────┼──────────────────────┤
│ leaky_re_lu_71      │ (None, 32)        │       0 │ dense_44[0][0]       │
│ (LeakyReLU)         │                   │         │                      │
├─────────────────────┼───────────────────┼─────────┼──────────────────────┤
│ dense_45 (Dense)    │ (None, 512)       │  16,896 │ leaky_re_lu_71[0][0] │
├─────────────────────┼───────────────────┼─────────┼──────────────────────┤
│ activation_22       │ (None, 512)       │       0 │ dense_45[0][0]       │
│ (Activation)        │                   │         │                      │
├─────────────────────┼───────────────────┼─────────┼──────────────────────┤
│ multiply_22         │ (None, 13, 512)   │       0 │ conv1d_27[0][0],     │
│ (Multiply)          │                   │         │ activation_22[0][0]  │
├─────────────────────┼───────────────────┼─────────┼──────────────────────┤
│ add_15 (Add)        │ (None, 13, 512)   │       0 │ multiply_22[0][0],   │
│                     │                   │         │ add_14[0][0]         │
├─────────────────────┼───────────────────┼─────────┼──────────────────────┤
│ concatenate_8       │ (None, 13, 679)   │       0 │ add_15[0][0],        │
│ (Concatenate)       │                   │         │ multiply_20[0][0]    │
├─────────────────────┼───────────────────┼─────────┼──────────────────────┤
│ batch_normalizatio… │ (None, 13, 679)   │   2,716 │ concatenate_8[0][0]  │
│ (BatchNormalizatio… │                   │         │                      │
├─────────────────────┼───────────────────┼─────────┼──────────────────────┤
│ leaky_re_lu_72      │ (None, 13, 679)   │       0 │ batch_normalization… │
│ (LeakyReLU)         │                   │         │                      │
├─────────────────────┼───────────────────┼─────────┼──────────────────────┤
│ conv1d_28 (Conv1D)  │ (None, 13, 339)   │ 230,520 │ leaky_re_lu_72[0][0] │
├─────────────────────┼───────────────────┼─────────┼──────────────────────┤
│ average_pooling1d_8 │ (None, 7, 339)    │       0 │ conv1d_28[0][0]      │
│ (AveragePooling1D)  │                   │         │                      │
├─────────────────────┼───────────────────┼─────────┼──────────────────────┤
│ global_average_poo… │ (None, 339)       │       0 │ average_pooling1d_8… │
│ (GlobalAveragePool… │                   │         │                      │
├─────────────────────┼───────────────────┼─────────┼──────────────────────┤
│ dense_46 (Dense)    │ (None, 21)        │   7,140 │ global_average_pool… │
├─────────────────────┼───────────────────┼─────────┼──────────────────────┤
│ leaky_re_lu_73      │ (None, 21)        │       0 │ dense_46[0][0]       │
│ (LeakyReLU)         │                   │         │                      │
├─────────────────────┼───────────────────┼─────────┼──────────────────────┤
│ dense_47 (Dense)    │ (None, 339)       │   7,458 │ leaky_re_lu_73[0][0] │
├─────────────────────┼───────────────────┼─────────┼──────────────────────┤
│ activation_23       │ (None, 339)       │       0 │ dense_47[0][0]       │
│ (Activation)        │                   │         │                      │
├─────────────────────┼───────────────────┼─────────┼──────────────────────┤
│ multiply_23         │ (None, 7, 339)    │       0 │ average_pooling1d_8… │
│ (Multiply)          │                   │         │ activation_23[0][0]  │
├─────────────────────┼───────────────────┼─────────┼──────────────────────┤
│ global_average_poo… │ (None, 339)       │       0 │ multiply_23[0][0]    │
│ (GlobalAveragePool… │                   │         │                      │
├─────────────────────┼───────────────────┼─────────┼──────────────────────┤
│ total_center1       │ (None, 100)       │  34,000 │ global_average_pool… │
│ (Dense)             │                   │         │                      │
├─────────────────────┼───────────────────┼─────────┼──────────────────────┤
│ total_width1        │ (None, 100)       │  34,000 │ global_average_pool… │
│ (Dense)             │                   │         │                      │
├─────────────────────┼───────────────────┼─────────┼──────────────────────┤
│ total_amp1 (Dense)  │ (None, 100)       │  34,000 │ global_average_pool… │
├─────────────────────┼───────────────────┼─────────┼──────────────────────┤
│ total_peak_number1  │ (None, 100)       │  34,000 │ global_average_pool… │
│ (Dense)             │                   │         │                      │
├─────────────────────┼───────────────────┼─────────┼──────────────────────┤
│ batch_normalizatio… │ (None, 100)       │     400 │ total_center1[0][0]  │
│ (BatchNormalizatio… │                   │         │                      │
├─────────────────────┼───────────────────┼─────────┼──────────────────────┤
│ batch_normalizatio… │ (None, 100)       │     400 │ total_width1[0][0]   │
│ (BatchNormalizatio… │                   │         │                      │
├─────────────────────┼───────────────────┼─────────┼──────────────────────┤
│ batch_normalizatio… │ (None, 100)       │     400 │ total_amp1[0][0]     │
│ (BatchNormalizatio… │                   │         │                      │
├─────────────────────┼───────────────────┼─────────┼──────────────────────┤
│ batch_normalizatio… │ (None, 100)       │     400 │ total_peak_number1[… │
│ (BatchNormalizatio… │                   │         │                      │
├─────────────────────┼───────────────────┼─────────┼──────────────────────┤
│ leaky_re_lu_74      │ (None, 100)       │       0 │ batch_normalization… │
│ (LeakyReLU)         │                   │         │                      │
├─────────────────────┼───────────────────┼─────────┼──────────────────────┤
│ leaky_re_lu_75      │ (None, 100)       │       0 │ batch_normalization… │
│ (LeakyReLU)         │                   │         │                      │
├─────────────────────┼───────────────────┼─────────┼──────────────────────┤
│ leaky_re_lu_76      │ (None, 100)       │       0 │ batch_normalization… │
│ (LeakyReLU)         │                   │         │                      │
├─────────────────────┼───────────────────┼─────────┼──────────────────────┤
│ leaky_re_lu_77      │ (None, 100)       │       0 │ batch_normalization… │
│ (LeakyReLU)         │                   │         │                      │
├─────────────────────┼───────────────────┼─────────┼──────────────────────┤
│ total_center3       │ (None, 1)         │     101 │ leaky_re_lu_74[0][0] │
│ (Dense)             │                   │         │                      │
├─────────────────────┼───────────────────┼─────────┼──────────────────────┤
│ total_width3        │ (None, 1)         │     101 │ leaky_re_lu_75[0][0] │
│ (Dense)             │                   │         │                      │
├─────────────────────┼───────────────────┼─────────┼──────────────────────┤
│ total_amp3 (Dense)  │ (None, 1)         │     101 │ leaky_re_lu_76[0][0] │
├─────────────────────┼───────────────────┼─────────┼──────────────────────┤
│ total_peak_number3  │ (None, 1)         │     101 │ leaky_re_lu_77[0][0] │
│ (Dense)             │                   │         │                      │
└─────────────────────┴───────────────────┴─────────┴──────────────────────┘
 Total params: 4,183,830 (15.96 MB)
 Trainable params: 4,173,818 (15.92 MB)
 Non-trainable params: 10,012 (39.11 KB)
