Model: "BayesianCNN"
┌─────────────────────┬───────────────────┬─────────┬──────────────────────┐
│ Layer (type)        │ Output Shape      │ Param # │ Connected to         │
├─────────────────────┼───────────────────┼─────────┼──────────────────────┤
│ input_1             │ (None, 401, 1)    │       0 │ -                    │
│ (InputLayer)        │                   │         │                      │
├─────────────────────┼───────────────────┼─────────┼──────────────────────┤
│ conv_1_short        │ (None, 401, 32)   │       0 │ input_1[0][0]        │
│ (MyConvLayer)       │                   │         │                      │
├─────────────────────┼───────────────────┼─────────┼──────────────────────┤
│ conv_1_medium       │ (None, 401, 32)   │       0 │ input_1[0][0]        │
│ (MyConvLayer)       │                   │         │                      │
├─────────────────────┼───────────────────┼─────────┼──────────────────────┤
│ conv_1_long         │ (None, 401, 32)   │       0 │ input_1[0][0]        │
│ (MyConvLayer)       │                   │         │                      │
├─────────────────────┼───────────────────┼─────────┼──────────────────────┤
│ concatenate_4       │ (None, 401, 96)   │       0 │ conv_1_short[0][0],  │
│ (Concatenate)       │                   │         │ conv_1_medium[0][0], │
│                     │                   │         │ conv_1_long[0][0]    │
├─────────────────────┼───────────────────┼─────────┼──────────────────────┤
│ conv_2              │ (None, 401, 64)   │       0 │ concatenate_4[0][0]  │
│ (MyConvLayer)       │                   │         │                      │
├─────────────────────┼───────────────────┼─────────┼──────────────────────┤
│ conv_3              │ (None, 401, 128)  │       0 │ conv_2[0][0]         │
│ (MyConvLayer)       │                   │         │                      │
├─────────────────────┼───────────────────┼─────────┼──────────────────────┤
│ average_pooling1d_4 │ (None, 200, 128)  │       0 │ conv_3[0][0]         │
│ (AveragePooling1D)  │                   │         │                      │
├─────────────────────┼───────────────────┼─────────┼──────────────────────┤
│ flatten1 (Flatten)  │ (None, 25600)     │       0 │ average_pooling1d_4… │
├─────────────────────┼───────────────────┼─────────┼──────────────────────┤
│ drop_1 (Dropout)    │ (None, 25600)     │       0 │ flatten1[0][0]       │
├─────────────────────┼───────────────────┼─────────┼──────────────────────┤
│ dense2_1 (Dense)    │ (None, 512)       │ 13,107… │ drop_1[0][0]         │
├─────────────────────┼───────────────────┼─────────┼──────────────────────┤
│ dense2_2 (Dense)    │ (None, 512)       │ 13,107… │ drop_1[0][0]         │
├─────────────────────┼───────────────────┼─────────┼──────────────────────┤
│ dense2_3 (Dense)    │ (None, 512)       │ 13,107… │ drop_1[0][0]         │
├─────────────────────┼───────────────────┼─────────┼──────────────────────┤
│ dense2_4 (Dense)    │ (None, 512)       │ 13,107… │ drop_1[0][0]         │
├─────────────────────┼───────────────────┼─────────┼──────────────────────┤
│ batch_norm_1        │ (None, 512)       │   2,048 │ dense2_1[0][0]       │
│ (BatchNormalizatio… │                   │         │                      │
├─────────────────────┼───────────────────┼─────────┼──────────────────────┤
│ batch_norm_2        │ (None, 512)       │   2,048 │ dense2_2[0][0]       │
│ (BatchNormalizatio… │                   │         │                      │
├─────────────────────┼───────────────────┼─────────┼──────────────────────┤
│ batch_norm_3        │ (None, 512)       │   2,048 │ dense2_3[0][0]       │
│ (BatchNormalizatio… │                   │         │                      │
├─────────────────────┼───────────────────┼─────────┼──────────────────────┤
│ batch_norm_4        │ (None, 512)       │   2,048 │ dense2_4[0][0]       │
│ (BatchNormalizatio… │                   │         │                      │
├─────────────────────┼───────────────────┼─────────┼──────────────────────┤
│ leaky_relu_1        │ (None, 512)       │       0 │ batch_norm_1[0][0]   │
│ (LeakyReLU)         │                   │         │                      │
├─────────────────────┼───────────────────┼─────────┼──────────────────────┤
│ leaky_relu_2        │ (None, 512)       │       0 │ batch_norm_2[0][0]   │
│ (LeakyReLU)         │                   │         │                      │
├─────────────────────┼───────────────────┼─────────┼──────────────────────┤
│ leaky_relu_3        │ (None, 512)       │       0 │ batch_norm_3[0][0]   │
│ (LeakyReLU)         │                   │         │                      │
├─────────────────────┼───────────────────┼─────────┼──────────────────────┤
│ leaky_relu_4        │ (None, 512)       │       0 │ batch_norm_4[0][0]   │
│ (LeakyReLU)         │                   │         │                      │
├─────────────────────┼───────────────────┼─────────┼──────────────────────┤
│ total_center3       │ (None, 1)         │     513 │ leaky_relu_1[0][0]   │
│ (Dense)             │                   │         │                      │
├─────────────────────┼───────────────────┼─────────┼──────────────────────┤
│ total_width3        │ (None, 1)         │     513 │ leaky_relu_2[0][0]   │
│ (Dense)             │                   │         │                      │
├─────────────────────┼───────────────────┼─────────┼──────────────────────┤
│ total_amp3 (Dense)  │ (None, 1)         │     513 │ leaky_relu_3[0][0]   │
├─────────────────────┼───────────────────┼─────────┼──────────────────────┤
│ total_peak_number3  │ (None, 1)         │     513 │ leaky_relu_4[0][0]   │
│ (Dense)             │                   │         │                      │
└─────────────────────┴───────────────────┴─────────┴──────────────────────┘
 Total params: 52,441,092 (200.05 MB)
 Trainable params: 52,436,996 (200.03 MB)
 Non-trainable params: 4,096 (16.00 KB)
