Model: "functional_1"
┌─────────────────────┬───────────────────┬─────────┬──────────────────────┐
│ Layer (type)        │ Output Shape      │ Param # │ Connected to         │
├─────────────────────┼───────────────────┼─────────┼──────────────────────┤
│ input_layer_6       │ (None, 401, 1)    │       0 │ -                    │
│ (InputLayer)        │                   │         │                      │
├─────────────────────┼───────────────────┼─────────┼──────────────────────┤
│ bayesian_conv1d_60  │ (None, 201, 32)   │       0 │ input_layer_6[0][0]  │
│ (BayesianConv1D)    │                   │         │                      │
├─────────────────────┼───────────────────┼─────────┼──────────────────────┤
│ batch_normalizatio… │ (None, 201, 32)   │     128 │ bayesian_conv1d_60[… │
│ (BatchNormalizatio… │                   │         │                      │
├─────────────────────┼───────────────────┼─────────┼──────────────────────┤
│ leaky_re_lu_72      │ (None, 201, 32)   │       0 │ batch_normalization… │
│ (LeakyReLU)         │                   │         │                      │
├─────────────────────┼───────────────────┼─────────┼──────────────────────┤
│ bayesian_conv1d_61  │ (None, 201, 32)   │       0 │ leaky_re_lu_72[0][0] │
│ (BayesianConv1D)    │                   │         │                      │
├─────────────────────┼───────────────────┼─────────┼──────────────────────┤
│ batch_normalizatio… │ (None, 201, 32)   │     128 │ bayesian_conv1d_61[… │
│ (BatchNormalizatio… │                   │         │                      │
├─────────────────────┼───────────────────┼─────────┼──────────────────────┤
│ leaky_re_lu_73      │ (None, 201, 32)   │       0 │ batch_normalization… │
│ (LeakyReLU)         │                   │         │                      │
├─────────────────────┼───────────────────┼─────────┼──────────────────────┤
│ bayesian_conv1d_62  │ (None, 201, 32)   │       0 │ leaky_re_lu_73[0][0] │
│ (BayesianConv1D)    │                   │         │                      │
├─────────────────────┼───────────────────┼─────────┼──────────────────────┤
│ batch_normalizatio… │ (None, 201, 32)   │     128 │ bayesian_conv1d_62[… │
│ (BatchNormalizatio… │                   │         │                      │
├─────────────────────┼───────────────────┼─────────┼──────────────────────┤
│ leaky_re_lu_74      │ (None, 201, 32)   │       0 │ batch_normalization… │
│ (LeakyReLU)         │                   │         │                      │
├─────────────────────┼───────────────────┼─────────┼──────────────────────┤
│ max_pooling1d_6     │ (None, 100, 32)   │       0 │ leaky_re_lu_74[0][0] │
│ (MaxPooling1D)      │                   │         │                      │
├─────────────────────┼───────────────────┼─────────┼──────────────────────┤
│ batch_normalizatio… │ (None, 100, 32)   │     128 │ max_pooling1d_6[0][… │
│ (BatchNormalizatio… │                   │         │                      │
├─────────────────────┼───────────────────┼─────────┼──────────────────────┤
│ leaky_re_lu_75      │ (None, 100, 32)   │       0 │ batch_normalization… │
│ (LeakyReLU)         │                   │         │                      │
├─────────────────────┼───────────────────┼─────────┼──────────────────────┤
│ bayesian_conv1d_64  │ (None, 100, 64)   │       0 │ leaky_re_lu_75[0][0] │
│ (BayesianConv1D)    │                   │         │                      │
├─────────────────────┼───────────────────┼─────────┼──────────────────────┤
│ batch_normalizatio… │ (None, 100, 64)   │     256 │ bayesian_conv1d_64[… │
│ (BatchNormalizatio… │                   │         │                      │
├─────────────────────┼───────────────────┼─────────┼──────────────────────┤
│ leaky_re_lu_76      │ (None, 100, 64)   │       0 │ batch_normalization… │
│ (LeakyReLU)         │                   │         │                      │
├─────────────────────┼───────────────────┼─────────┼──────────────────────┤
│ bayesian_conv1d_65  │ (None, 100, 64)   │       0 │ leaky_re_lu_76[0][0] │
│ (BayesianConv1D)    │                   │         │                      │
├─────────────────────┼───────────────────┼─────────┼──────────────────────┤
│ global_average_poo… │ (None, 64)        │       0 │ bayesian_conv1d_65[… │
│ (GlobalAveragePool… │                   │         │                      │
├─────────────────────┼───────────────────┼─────────┼──────────────────────┤
│ dense_40 (Dense)    │ (None, 4)         │     260 │ global_average_pool… │
├─────────────────────┼───────────────────┼─────────┼──────────────────────┤
│ leaky_re_lu_77      │ (None, 4)         │       0 │ dense_40[0][0]       │
│ (LeakyReLU)         │                   │         │                      │
├─────────────────────┼───────────────────┼─────────┼──────────────────────┤
│ dense_41 (Dense)    │ (None, 64)        │     320 │ leaky_re_lu_77[0][0] │
├─────────────────────┼───────────────────┼─────────┼──────────────────────┤
│ activation_20       │ (None, 64)        │       0 │ dense_41[0][0]       │
│ (Activation)        │                   │         │                      │
├─────────────────────┼───────────────────┼─────────┼──────────────────────┤
│ multiply_19         │ (None, 100, 64)   │       0 │ bayesian_conv1d_65[… │
│ (Multiply)          │                   │         │ activation_20[0][0]  │
├─────────────────────┼───────────────────┼─────────┼──────────────────────┤
│ bayesian_conv1d_63  │ (None, 100, 64)   │       0 │ max_pooling1d_6[0][… │
│ (BayesianConv1D)    │                   │         │                      │
├─────────────────────┼───────────────────┼─────────┼──────────────────────┤
│ add_13 (Add)        │ (None, 100, 64)   │       0 │ multiply_19[0][0],   │
│                     │                   │         │ bayesian_conv1d_63[… │
├─────────────────────┼───────────────────┼─────────┼──────────────────────┤
│ batch_normalizatio… │ (None, 100, 64)   │     256 │ add_13[0][0]         │
│ (BatchNormalizatio… │                   │         │                      │
├─────────────────────┼───────────────────┼─────────┼──────────────────────┤
│ leaky_re_lu_78      │ (None, 100, 64)   │       0 │ batch_normalization… │
│ (LeakyReLU)         │                   │         │                      │
├─────────────────────┼───────────────────┼─────────┼──────────────────────┤
│ bayesian_conv1d_66  │ (None, 100, 64)   │       0 │ leaky_re_lu_78[0][0] │
│ (BayesianConv1D)    │                   │         │                      │
├─────────────────────┼───────────────────┼─────────┼──────────────────────┤
│ batch_normalizatio… │ (None, 100, 64)   │     256 │ bayesian_conv1d_66[… │
│ (BatchNormalizatio… │                   │         │                      │
├─────────────────────┼───────────────────┼─────────┼──────────────────────┤
│ leaky_re_lu_79      │ (None, 100, 64)   │       0 │ batch_normalization… │
│ (LeakyReLU)         │                   │         │                      │
├─────────────────────┼───────────────────┼─────────┼──────────────────────┤
│ bayesian_conv1d_67  │ (None, 100, 64)   │       0 │ leaky_re_lu_79[0][0] │
│ (BayesianConv1D)    │                   │         │                      │
├─────────────────────┼───────────────────┼─────────┼──────────────────────┤
│ global_average_poo… │ (None, 64)        │       0 │ bayesian_conv1d_67[… │
│ (GlobalAveragePool… │                   │         │                      │
├─────────────────────┼───────────────────┼─────────┼──────────────────────┤
│ dense_42 (Dense)    │ (None, 4)         │     260 │ global_average_pool… │
├─────────────────────┼───────────────────┼─────────┼──────────────────────┤
│ leaky_re_lu_80      │ (None, 4)         │       0 │ dense_42[0][0]       │
│ (LeakyReLU)         │                   │         │                      │
├─────────────────────┼───────────────────┼─────────┼──────────────────────┤
│ dense_43 (Dense)    │ (None, 64)        │     320 │ leaky_re_lu_80[0][0] │
├─────────────────────┼───────────────────┼─────────┼──────────────────────┤
│ activation_21       │ (None, 64)        │       0 │ dense_43[0][0]       │
│ (Activation)        │                   │         │                      │
├─────────────────────┼───────────────────┼─────────┼──────────────────────┤
│ multiply_20         │ (None, 100, 64)   │       0 │ bayesian_conv1d_67[… │
│ (Multiply)          │                   │         │ activation_21[0][0]  │
├─────────────────────┼───────────────────┼─────────┼──────────────────────┤
│ add_14 (Add)        │ (None, 100, 64)   │       0 │ multiply_20[0][0],   │
│                     │                   │         │ add_13[0][0]         │
├─────────────────────┼───────────────────┼─────────┼──────────────────────┤
│ concatenate_8       │ (None, 100, 96)   │       0 │ add_14[0][0],        │
│ (Concatenate)       │                   │         │ max_pooling1d_6[0][… │
├─────────────────────┼───────────────────┼─────────┼──────────────────────┤
│ batch_normalizatio… │ (None, 100, 96)   │     384 │ concatenate_8[0][0]  │
│ (BatchNormalizatio… │                   │         │                      │
├─────────────────────┼───────────────────┼─────────┼──────────────────────┤
│ leaky_re_lu_81      │ (None, 100, 96)   │       0 │ batch_normalization… │
│ (LeakyReLU)         │                   │         │                      │
├─────────────────────┼───────────────────┼─────────┼──────────────────────┤
│ bayesian_conv1d_68  │ (None, 100, 48)   │       0 │ leaky_re_lu_81[0][0] │
│ (BayesianConv1D)    │                   │         │                      │
├─────────────────────┼───────────────────┼─────────┼──────────────────────┤
│ average_pooling1d_6 │ (None, 50, 48)    │       0 │ bayesian_conv1d_68[… │
│ (AveragePooling1D)  │                   │         │                      │
├─────────────────────┼───────────────────┼─────────┼──────────────────────┤
│ global_average_poo… │ (None, 48)        │       0 │ average_pooling1d_6… │
│ (GlobalAveragePool… │                   │         │                      │
├─────────────────────┼───────────────────┼─────────┼──────────────────────┤
│ dense_44 (Dense)    │ (None, 3)         │     147 │ global_average_pool… │
├─────────────────────┼───────────────────┼─────────┼──────────────────────┤
│ leaky_re_lu_82      │ (None, 3)         │       0 │ dense_44[0][0]       │
│ (LeakyReLU)         │                   │         │                      │
├─────────────────────┼───────────────────┼─────────┼──────────────────────┤
│ dense_45 (Dense)    │ (None, 48)        │     192 │ leaky_re_lu_82[0][0] │
├─────────────────────┼───────────────────┼─────────┼──────────────────────┤
│ activation_22       │ (None, 48)        │       0 │ dense_45[0][0]       │
│ (Activation)        │                   │         │                      │
├─────────────────────┼───────────────────┼─────────┼──────────────────────┤
│ multiply_21         │ (None, 50, 48)    │       0 │ average_pooling1d_6… │
│ (Multiply)          │                   │         │ activation_22[0][0]  │
├─────────────────────┼───────────────────┼─────────┼──────────────────────┤
│ batch_normalizatio… │ (None, 50, 48)    │     192 │ multiply_21[0][0]    │
│ (BatchNormalizatio… │                   │         │                      │
├─────────────────────┼───────────────────┼─────────┼──────────────────────┤
│ leaky_re_lu_83      │ (None, 50, 48)    │       0 │ batch_normalization… │
│ (LeakyReLU)         │                   │         │                      │
├─────────────────────┼───────────────────┼─────────┼──────────────────────┤
│ bayesian_conv1d_70  │ (None, 50, 128)   │       0 │ leaky_re_lu_83[0][0] │
│ (BayesianConv1D)    │                   │         │                      │
├─────────────────────┼───────────────────┼─────────┼──────────────────────┤
│ batch_normalizatio… │ (None, 50, 128)   │     512 │ bayesian_conv1d_70[… │
│ (BatchNormalizatio… │                   │         │                      │
├─────────────────────┼───────────────────┼─────────┼──────────────────────┤
│ leaky_re_lu_84      │ (None, 50, 128)   │       0 │ batch_normalization… │
│ (LeakyReLU)         │                   │         │                      │
├─────────────────────┼───────────────────┼─────────┼──────────────────────┤
│ bayesian_conv1d_71  │ (None, 50, 128)   │       0 │ leaky_re_lu_84[0][0] │
│ (BayesianConv1D)    │                   │         │                      │
├─────────────────────┼───────────────────┼─────────┼──────────────────────┤
│ global_average_poo… │ (None, 128)       │       0 │ bayesian_conv1d_71[… │
│ (GlobalAveragePool… │                   │         │                      │
├─────────────────────┼───────────────────┼─────────┼──────────────────────┤
│ dense_46 (Dense)    │ (None, 8)         │   1,032 │ global_average_pool… │
├─────────────────────┼───────────────────┼─────────┼──────────────────────┤
│ leaky_re_lu_85      │ (None, 8)         │       0 │ dense_46[0][0]       │
│ (LeakyReLU)         │                   │         │                      │
├─────────────────────┼───────────────────┼─────────┼──────────────────────┤
│ dense_47 (Dense)    │ (None, 128)       │   1,152 │ leaky_re_lu_85[0][0] │
├─────────────────────┼───────────────────┼─────────┼──────────────────────┤
│ activation_23       │ (None, 128)       │       0 │ dense_47[0][0]       │
│ (Activation)        │                   │         │                      │
├─────────────────────┼───────────────────┼─────────┼──────────────────────┤
│ multiply_22         │ (None, 50, 128)   │       0 │ bayesian_conv1d_71[… │
│ (Multiply)          │                   │         │ activation_23[0][0]  │
├─────────────────────┼───────────────────┼─────────┼──────────────────────┤
│ bayesian_conv1d_69  │ (None, 50, 128)   │       0 │ multiply_21[0][0]    │
│ (BayesianConv1D)    │                   │         │                      │
├─────────────────────┼───────────────────┼─────────┼──────────────────────┤
│ add_15 (Add)        │ (None, 50, 128)   │       0 │ multiply_22[0][0],   │
│                     │                   │         │ bayesian_conv1d_69[… │
├─────────────────────┼───────────────────┼─────────┼──────────────────────┤
│ batch_normalizatio… │ (None, 50, 128)   │     512 │ add_15[0][0]         │
│ (BatchNormalizatio… │                   │         │                      │
├─────────────────────┼───────────────────┼─────────┼──────────────────────┤
│ leaky_re_lu_86      │ (None, 50, 128)   │       0 │ batch_normalization… │
│ (LeakyReLU)         │                   │         │                      │
├─────────────────────┼───────────────────┼─────────┼──────────────────────┤
│ bayesian_conv1d_72  │ (None, 50, 128)   │       0 │ leaky_re_lu_86[0][0] │
│ (BayesianConv1D)    │                   │         │                      │
├─────────────────────┼───────────────────┼─────────┼──────────────────────┤
│ batch_normalizatio… │ (None, 50, 128)   │     512 │ bayesian_conv1d_72[… │
│ (BatchNormalizatio… │                   │         │                      │
├─────────────────────┼───────────────────┼─────────┼──────────────────────┤
│ leaky_re_lu_87      │ (None, 50, 128)   │       0 │ batch_normalization… │
│ (LeakyReLU)         │                   │         │                      │
├─────────────────────┼───────────────────┼─────────┼──────────────────────┤
│ bayesian_conv1d_73  │ (None, 50, 128)   │       0 │ leaky_re_lu_87[0][0] │
│ (BayesianConv1D)    │                   │         │                      │
├─────────────────────┼───────────────────┼─────────┼──────────────────────┤
│ global_average_poo… │ (None, 128)       │       0 │ bayesian_conv1d_73[… │
│ (GlobalAveragePool… │                   │         │                      │
├─────────────────────┼───────────────────┼─────────┼──────────────────────┤
│ dense_48 (Dense)    │ (None, 8)         │   1,032 │ global_average_pool… │
├─────────────────────┼───────────────────┼─────────┼──────────────────────┤
│ leaky_re_lu_88      │ (None, 8)         │       0 │ dense_48[0][0]       │
│ (LeakyReLU)         │                   │         │                      │
├─────────────────────┼───────────────────┼─────────┼──────────────────────┤
│ dense_49 (Dense)    │ (None, 128)       │   1,152 │ leaky_re_lu_88[0][0] │
├─────────────────────┼───────────────────┼─────────┼──────────────────────┤
│ activation_24       │ (None, 128)       │       0 │ dense_49[0][0]       │
│ (Activation)        │                   │         │                      │
├─────────────────────┼───────────────────┼─────────┼──────────────────────┤
│ multiply_23         │ (None, 50, 128)   │       0 │ bayesian_conv1d_73[… │
│ (Multiply)          │                   │         │ activation_24[0][0]  │
├─────────────────────┼───────────────────┼─────────┼──────────────────────┤
│ add_16 (Add)        │ (None, 50, 128)   │       0 │ multiply_23[0][0],   │
│                     │                   │         │ add_15[0][0]         │
├─────────────────────┼───────────────────┼─────────┼──────────────────────┤
│ concatenate_9       │ (None, 50, 176)   │       0 │ add_16[0][0],        │
│ (Concatenate)       │                   │         │ multiply_21[0][0]    │
├─────────────────────┼───────────────────┼─────────┼──────────────────────┤
│ batch_normalizatio… │ (None, 50, 176)   │     704 │ concatenate_9[0][0]  │
│ (BatchNormalizatio… │                   │         │                      │
├─────────────────────┼───────────────────┼─────────┼──────────────────────┤
│ leaky_re_lu_89      │ (None, 50, 176)   │       0 │ batch_normalization… │
│ (LeakyReLU)         │                   │         │                      │
├─────────────────────┼───────────────────┼─────────┼──────────────────────┤
│ bayesian_conv1d_74  │ (None, 50, 88)    │       0 │ leaky_re_lu_89[0][0] │
│ (BayesianConv1D)    │                   │         │                      │
├─────────────────────┼───────────────────┼─────────┼──────────────────────┤
│ average_pooling1d_7 │ (None, 25, 88)    │       0 │ bayesian_conv1d_74[… │
│ (AveragePooling1D)  │                   │         │                      │
├─────────────────────┼───────────────────┼─────────┼──────────────────────┤
│ global_average_poo… │ (None, 88)        │       0 │ average_pooling1d_7… │
│ (GlobalAveragePool… │                   │         │                      │
├─────────────────────┼───────────────────┼─────────┼──────────────────────┤
│ dense_50 (Dense)    │ (None, 5)         │     445 │ global_average_pool… │
├─────────────────────┼───────────────────┼─────────┼──────────────────────┤
│ leaky_re_lu_90      │ (None, 5)         │       0 │ dense_50[0][0]       │
│ (LeakyReLU)         │                   │         │                      │
├─────────────────────┼───────────────────┼─────────┼──────────────────────┤
│ dense_51 (Dense)    │ (None, 88)        │     528 │ leaky_re_lu_90[0][0] │
├─────────────────────┼───────────────────┼─────────┼──────────────────────┤
│ activation_25       │ (None, 88)        │       0 │ dense_51[0][0]       │
│ (Activation)        │                   │         │                      │
├─────────────────────┼───────────────────┼─────────┼──────────────────────┤
│ multiply_24         │ (None, 25, 88)    │       0 │ average_pooling1d_7… │
│ (Multiply)          │                   │         │ activation_25[0][0]  │
├─────────────────────┼───────────────────┼─────────┼──────────────────────┤
│ batch_normalizatio… │ (None, 25, 88)    │     352 │ multiply_24[0][0]    │
│ (BatchNormalizatio… │                   │         │                      │
├─────────────────────┼───────────────────┼─────────┼──────────────────────┤
│ leaky_re_lu_91      │ (None, 25, 88)    │       0 │ batch_normalization… │
│ (LeakyReLU)         │                   │         │                      │
├─────────────────────┼───────────────────┼─────────┼──────────────────────┤
│ bayesian_conv1d_76  │ (None, 25, 256)   │       0 │ leaky_re_lu_91[0][0] │
│ (BayesianConv1D)    │                   │         │                      │
├─────────────────────┼───────────────────┼─────────┼──────────────────────┤
│ batch_normalizatio… │ (None, 25, 256)   │   1,024 │ bayesian_conv1d_76[… │
│ (BatchNormalizatio… │                   │         │                      │
├─────────────────────┼───────────────────┼─────────┼──────────────────────┤
│ leaky_re_lu_92      │ (None, 25, 256)   │       0 │ batch_normalization… │
│ (LeakyReLU)         │                   │         │                      │
├─────────────────────┼───────────────────┼─────────┼──────────────────────┤
│ bayesian_conv1d_77  │ (None, 25, 256)   │       0 │ leaky_re_lu_92[0][0] │
│ (BayesianConv1D)    │                   │         │                      │
├─────────────────────┼───────────────────┼─────────┼──────────────────────┤
│ global_average_poo… │ (None, 256)       │       0 │ bayesian_conv1d_77[… │
│ (GlobalAveragePool… │                   │         │                      │
├─────────────────────┼───────────────────┼─────────┼──────────────────────┤
│ dense_52 (Dense)    │ (None, 16)        │   4,112 │ global_average_pool… │
├─────────────────────┼───────────────────┼─────────┼──────────────────────┤
│ leaky_re_lu_93      │ (None, 16)        │       0 │ dense_52[0][0]       │
│ (LeakyReLU)         │                   │         │                      │
├─────────────────────┼───────────────────┼─────────┼──────────────────────┤
│ dense_53 (Dense)    │ (None, 256)       │   4,352 │ leaky_re_lu_93[0][0] │
├─────────────────────┼───────────────────┼─────────┼──────────────────────┤
│ activation_26       │ (None, 256)       │       0 │ dense_53[0][0]       │
│ (Activation)        │                   │         │                      │
├─────────────────────┼───────────────────┼─────────┼──────────────────────┤
│ multiply_25         │ (None, 25, 256)   │       0 │ bayesian_conv1d_77[… │
│ (Multiply)          │                   │         │ activation_26[0][0]  │
├─────────────────────┼───────────────────┼─────────┼──────────────────────┤
│ bayesian_conv1d_75  │ (None, 25, 256)   │       0 │ multiply_24[0][0]    │
│ (BayesianConv1D)    │                   │         │                      │
├─────────────────────┼───────────────────┼─────────┼──────────────────────┤
│ add_17 (Add)        │ (None, 25, 256)   │       0 │ multiply_25[0][0],   │
│                     │                   │         │ bayesian_conv1d_75[… │
├─────────────────────┼───────────────────┼─────────┼──────────────────────┤
│ batch_normalizatio… │ (None, 25, 256)   │   1,024 │ add_17[0][0]         │
│ (BatchNormalizatio… │                   │         │                      │
├─────────────────────┼───────────────────┼─────────┼──────────────────────┤
│ leaky_re_lu_94      │ (None, 25, 256)   │       0 │ batch_normalization… │
│ (LeakyReLU)         │                   │         │                      │
├─────────────────────┼───────────────────┼─────────┼──────────────────────┤
│ bayesian_conv1d_78  │ (None, 25, 256)   │       0 │ leaky_re_lu_94[0][0] │
│ (BayesianConv1D)    │                   │         │                      │
├─────────────────────┼───────────────────┼─────────┼──────────────────────┤
│ batch_normalizatio… │ (None, 25, 256)   │   1,024 │ bayesian_conv1d_78[… │
│ (BatchNormalizatio… │                   │         │                      │
├─────────────────────┼───────────────────┼─────────┼──────────────────────┤
│ leaky_re_lu_95      │ (None, 25, 256)   │       0 │ batch_normalization… │
│ (LeakyReLU)         │                   │         │                      │
├─────────────────────┼───────────────────┼─────────┼──────────────────────┤
│ bayesian_conv1d_79  │ (None, 25, 256)   │       0 │ leaky_re_lu_95[0][0] │
│ (BayesianConv1D)    │                   │         │                      │
├─────────────────────┼───────────────────┼─────────┼──────────────────────┤
│ global_average_poo… │ (None, 256)       │       0 │ bayesian_conv1d_79[… │
│ (GlobalAveragePool… │                   │         │                      │
├─────────────────────┼───────────────────┼─────────┼──────────────────────┤
│ dense_54 (Dense)    │ (None, 16)        │   4,112 │ global_average_pool… │
├─────────────────────┼───────────────────┼─────────┼──────────────────────┤
│ leaky_re_lu_96      │ (None, 16)        │       0 │ dense_54[0][0]       │
│ (LeakyReLU)         │                   │         │                      │
├─────────────────────┼───────────────────┼─────────┼──────────────────────┤
│ dense_55 (Dense)    │ (None, 256)       │   4,352 │ leaky_re_lu_96[0][0] │
├─────────────────────┼───────────────────┼─────────┼──────────────────────┤
│ activation_27       │ (None, 256)       │       0 │ dense_55[0][0]       │
│ (Activation)        │                   │         │                      │
├─────────────────────┼───────────────────┼─────────┼──────────────────────┤
│ multiply_26         │ (None, 25, 256)   │       0 │ bayesian_conv1d_79[… │
│ (Multiply)          │                   │         │ activation_27[0][0]  │
├─────────────────────┼───────────────────┼─────────┼──────────────────────┤
│ add_18 (Add)        │ (None, 25, 256)   │       0 │ multiply_26[0][0],   │
│                     │                   │         │ add_17[0][0]         │
├─────────────────────┼───────────────────┼─────────┼──────────────────────┤
│ concatenate_10      │ (None, 25, 344)   │       0 │ add_18[0][0],        │
│ (Concatenate)       │                   │         │ multiply_24[0][0]    │
├─────────────────────┼───────────────────┼─────────┼──────────────────────┤
│ batch_normalizatio… │ (None, 25, 344)   │   1,376 │ concatenate_10[0][0] │
│ (BatchNormalizatio… │                   │         │                      │
├─────────────────────┼───────────────────┼─────────┼──────────────────────┤
│ leaky_re_lu_97      │ (None, 25, 344)   │       0 │ batch_normalization… │
│ (LeakyReLU)         │                   │         │                      │
├─────────────────────┼───────────────────┼─────────┼──────────────────────┤
│ bayesian_conv1d_80  │ (None, 25, 167)   │       0 │ leaky_re_lu_97[0][0] │
│ (BayesianConv1D)    │                   │         │                      │
├─────────────────────┼───────────────────┼─────────┼──────────────────────┤
│ average_pooling1d_8 │ (None, 13, 167)   │       0 │ bayesian_conv1d_80[… │
│ (AveragePooling1D)  │                   │         │                      │
├─────────────────────┼───────────────────┼─────────┼──────────────────────┤
│ global_average_poo… │ (None, 167)       │       0 │ average_pooling1d_8… │
│ (GlobalAveragePool… │                   │         │                      │
├─────────────────────┼───────────────────┼─────────┼──────────────────────┤
│ dense_56 (Dense)    │ (None, 10)        │   1,680 │ global_average_pool… │
├─────────────────────┼───────────────────┼─────────┼──────────────────────┤
│ leaky_re_lu_98      │ (None, 10)        │       0 │ dense_56[0][0]       │
│ (LeakyReLU)         │                   │         │                      │
├─────────────────────┼───────────────────┼─────────┼──────────────────────┤
│ dense_57 (Dense)    │ (None, 167)       │   1,837 │ leaky_re_lu_98[0][0] │
├─────────────────────┼───────────────────┼─────────┼──────────────────────┤
│ activation_28       │ (None, 167)       │       0 │ dense_57[0][0]       │
│ (Activation)        │                   │         │                      │
├─────────────────────┼───────────────────┼─────────┼──────────────────────┤
│ multiply_27         │ (None, 13, 167)   │       0 │ average_pooling1d_8… │
│ (Multiply)          │                   │         │ activation_28[0][0]  │
├─────────────────────┼───────────────────┼─────────┼──────────────────────┤
│ batch_normalizatio… │ (None, 13, 167)   │     668 │ multiply_27[0][0]    │
│ (BatchNormalizatio… │                   │         │                      │
├─────────────────────┼───────────────────┼─────────┼──────────────────────┤
│ leaky_re_lu_99      │ (None, 13, 167)   │       0 │ batch_normalization… │
│ (LeakyReLU)         │                   │         │                      │
├─────────────────────┼───────────────────┼─────────┼──────────────────────┤
│ bayesian_conv1d_82  │ (None, 13, 512)   │       0 │ leaky_re_lu_99[0][0] │
│ (BayesianConv1D)    │                   │         │                      │
├─────────────────────┼───────────────────┼─────────┼──────────────────────┤
│ batch_normalizatio… │ (None, 13, 512)   │   2,048 │ bayesian_conv1d_82[… │
│ (BatchNormalizatio… │                   │         │                      │
├─────────────────────┼───────────────────┼─────────┼──────────────────────┤
│ leaky_re_lu_100     │ (None, 13, 512)   │       0 │ batch_normalization… │
│ (LeakyReLU)         │                   │         │                      │
├─────────────────────┼───────────────────┼─────────┼──────────────────────┤
│ bayesian_conv1d_83  │ (None, 13, 512)   │       0 │ leaky_re_lu_100[0][… │
│ (BayesianConv1D)    │                   │         │                      │
├─────────────────────┼───────────────────┼─────────┼──────────────────────┤
│ global_average_poo… │ (None, 512)       │       0 │ bayesian_conv1d_83[… │
│ (GlobalAveragePool… │                   │         │                      │
├─────────────────────┼───────────────────┼─────────┼──────────────────────┤
│ dense_58 (Dense)    │ (None, 32)        │  16,416 │ global_average_pool… │
├─────────────────────┼───────────────────┼─────────┼──────────────────────┤
│ leaky_re_lu_101     │ (None, 32)        │       0 │ dense_58[0][0]       │
│ (LeakyReLU)         │                   │         │                      │
├─────────────────────┼───────────────────┼─────────┼──────────────────────┤
│ dense_59 (Dense)    │ (None, 512)       │  16,896 │ leaky_re_lu_101[0][… │
├─────────────────────┼───────────────────┼─────────┼──────────────────────┤
│ activation_29       │ (None, 512)       │       0 │ dense_59[0][0]       │
│ (Activation)        │                   │         │                      │
├─────────────────────┼───────────────────┼─────────┼──────────────────────┤
│ multiply_28         │ (None, 13, 512)   │       0 │ bayesian_conv1d_83[… │
│ (Multiply)          │                   │         │ activation_29[0][0]  │
├─────────────────────┼───────────────────┼─────────┼──────────────────────┤
│ bayesian_conv1d_81  │ (None, 13, 512)   │       0 │ multiply_27[0][0]    │
│ (BayesianConv1D)    │                   │         │                      │
├─────────────────────┼───────────────────┼─────────┼──────────────────────┤
│ add_19 (Add)        │ (None, 13, 512)   │       0 │ multiply_28[0][0],   │
│                     │                   │         │ bayesian_conv1d_81[… │
├─────────────────────┼───────────────────┼─────────┼──────────────────────┤
│ batch_normalizatio… │ (None, 13, 512)   │   2,048 │ add_19[0][0]         │
│ (BatchNormalizatio… │                   │         │                      │
├─────────────────────┼───────────────────┼─────────┼──────────────────────┤
│ leaky_re_lu_102     │ (None, 13, 512)   │       0 │ batch_normalization… │
│ (LeakyReLU)         │                   │         │                      │
├─────────────────────┼───────────────────┼─────────┼──────────────────────┤
│ bayesian_conv1d_84  │ (None, 13, 512)   │       0 │ leaky_re_lu_102[0][… │
│ (BayesianConv1D)    │                   │         │                      │
├─────────────────────┼───────────────────┼─────────┼──────────────────────┤
│ batch_normalizatio… │ (None, 13, 512)   │   2,048 │ bayesian_conv1d_84[… │
│ (BatchNormalizatio… │                   │         │                      │
├─────────────────────┼───────────────────┼─────────┼──────────────────────┤
│ leaky_re_lu_103     │ (None, 13, 512)   │       0 │ batch_normalization… │
│ (LeakyReLU)         │                   │         │                      │
├─────────────────────┼───────────────────┼─────────┼──────────────────────┤
│ bayesian_conv1d_85  │ (None, 13, 512)   │       0 │ leaky_re_lu_103[0][… │
│ (BayesianConv1D)    │                   │         │                      │
├─────────────────────┼───────────────────┼─────────┼──────────────────────┤
│ global_average_poo… │ (None, 512)       │       0 │ bayesian_conv1d_85[… │
│ (GlobalAveragePool… │                   │         │                      │
├─────────────────────┼───────────────────┼─────────┼──────────────────────┤
│ dense_60 (Dense)    │ (None, 32)        │  16,416 │ global_average_pool… │
├─────────────────────┼───────────────────┼─────────┼──────────────────────┤
│ leaky_re_lu_104     │ (None, 32)        │       0 │ dense_60[0][0]       │
│ (LeakyReLU)         │                   │         │                      │
├─────────────────────┼───────────────────┼─────────┼──────────────────────┤
│ dense_61 (Dense)    │ (None, 512)       │  16,896 │ leaky_re_lu_104[0][… │
├─────────────────────┼───────────────────┼─────────┼──────────────────────┤
│ activation_30       │ (None, 512)       │       0 │ dense_61[0][0]       │
│ (Activation)        │                   │         │                      │
├─────────────────────┼───────────────────┼─────────┼──────────────────────┤
│ multiply_29         │ (None, 13, 512)   │       0 │ bayesian_conv1d_85[… │
│ (Multiply)          │                   │         │ activation_30[0][0]  │
├─────────────────────┼───────────────────┼─────────┼──────────────────────┤
│ add_20 (Add)        │ (None, 13, 512)   │       0 │ multiply_29[0][0],   │
│                     │                   │         │ add_19[0][0]         │
├─────────────────────┼───────────────────┼─────────┼──────────────────────┤
│ concatenate_11      │ (None, 13, 679)   │       0 │ add_20[0][0],        │
│ (Concatenate)       │                   │         │ multiply_27[0][0]    │
├─────────────────────┼───────────────────┼─────────┼──────────────────────┤
│ batch_normalizatio… │ (None, 13, 679)   │   2,716 │ concatenate_11[0][0] │
│ (BatchNormalizatio… │                   │         │                      │
├─────────────────────┼───────────────────┼─────────┼──────────────────────┤
│ leaky_re_lu_105     │ (None, 13, 679)   │       0 │ batch_normalization… │
│ (LeakyReLU)         │                   │         │                      │
├─────────────────────┼───────────────────┼─────────┼──────────────────────┤
│ bayesian_conv1d_86  │ (None, 13, 339)   │       0 │ leaky_re_lu_105[0][… │
│ (BayesianConv1D)    │                   │         │                      │
├─────────────────────┼───────────────────┼─────────┼──────────────────────┤
│ average_pooling1d_9 │ (None, 7, 339)    │       0 │ bayesian_conv1d_86[… │
│ (AveragePooling1D)  │                   │         │                      │
├─────────────────────┼───────────────────┼─────────┼──────────────────────┤
│ global_average_poo… │ (None, 339)       │       0 │ average_pooling1d_9… │
│ (GlobalAveragePool… │                   │         │                      │
├─────────────────────┼───────────────────┼─────────┼──────────────────────┤
│ dense_62 (Dense)    │ (None, 21)        │   7,140 │ global_average_pool… │
├─────────────────────┼───────────────────┼─────────┼──────────────────────┤
│ leaky_re_lu_106     │ (None, 21)        │       0 │ dense_62[0][0]       │
│ (LeakyReLU)         │                   │         │                      │
├─────────────────────┼───────────────────┼─────────┼──────────────────────┤
│ dense_63 (Dense)    │ (None, 339)       │   7,458 │ leaky_re_lu_106[0][… │
├─────────────────────┼───────────────────┼─────────┼──────────────────────┤
│ activation_31       │ (None, 339)       │       0 │ dense_63[0][0]       │
│ (Activation)        │                   │         │                      │
├─────────────────────┼───────────────────┼─────────┼──────────────────────┤
│ multiply_30         │ (None, 7, 339)    │       0 │ average_pooling1d_9… │
│ (Multiply)          │                   │         │ activation_31[0][0]  │
├─────────────────────┼───────────────────┼─────────┼──────────────────────┤
│ global_average_poo… │ (None, 339)       │       0 │ multiply_30[0][0]    │
│ (GlobalAveragePool… │                   │         │                      │
├─────────────────────┼───────────────────┼─────────┼──────────────────────┤
│ total_center1       │ (None, 100)       │  34,000 │ global_average_pool… │
│ (Dense)             │                   │         │                      │
├─────────────────────┼───────────────────┼─────────┼──────────────────────┤
│ total_width1        │ (None, 100)       │  34,000 │ global_average_pool… │
│ (Dense)             │                   │         │                      │
├─────────────────────┼───────────────────┼─────────┼──────────────────────┤
│ total_amp1 (Dense)  │ (None, 100)       │  34,000 │ global_average_pool… │
├─────────────────────┼───────────────────┼─────────┼──────────────────────┤
│ total_peak_number1  │ (None, 100)       │  34,000 │ global_average_pool… │
│ (Dense)             │                   │         │                      │
├─────────────────────┼───────────────────┼─────────┼──────────────────────┤
│ batch_normalizatio… │ (None, 100)       │     400 │ total_center1[0][0]  │
│ (BatchNormalizatio… │                   │         │                      │
├─────────────────────┼───────────────────┼─────────┼──────────────────────┤
│ batch_normalizatio… │ (None, 100)       │     400 │ total_width1[0][0]   │
│ (BatchNormalizatio… │                   │         │                      │
├─────────────────────┼───────────────────┼─────────┼──────────────────────┤
│ batch_normalizatio… │ (None, 100)       │     400 │ total_amp1[0][0]     │
│ (BatchNormalizatio… │                   │         │                      │
├─────────────────────┼───────────────────┼─────────┼──────────────────────┤
│ batch_normalizatio… │ (None, 100)       │     400 │ total_peak_number1[… │
│ (BatchNormalizatio… │                   │         │                      │
├─────────────────────┼───────────────────┼─────────┼──────────────────────┤
│ leaky_re_lu_107     │ (None, 100)       │       0 │ batch_normalization… │
│ (LeakyReLU)         │                   │         │                      │
├─────────────────────┼───────────────────┼─────────┼──────────────────────┤
│ leaky_re_lu_108     │ (None, 100)       │       0 │ batch_normalization… │
│ (LeakyReLU)         │                   │         │                      │
├─────────────────────┼───────────────────┼─────────┼──────────────────────┤
│ leaky_re_lu_109     │ (None, 100)       │       0 │ batch_normalization… │
│ (LeakyReLU)         │                   │         │                      │
├─────────────────────┼───────────────────┼─────────┼──────────────────────┤
│ leaky_re_lu_110     │ (None, 100)       │       0 │ batch_normalization… │
│ (LeakyReLU)         │                   │         │                      │
├─────────────────────┼───────────────────┼─────────┼──────────────────────┤
│ total_center3       │ (None, 1)         │     101 │ leaky_re_lu_107[0][… │
│ (Dense)             │                   │         │                      │
├─────────────────────┼───────────────────┼─────────┼──────────────────────┤
│ total_width3        │ (None, 1)         │     101 │ leaky_re_lu_108[0][… │
│ (Dense)             │                   │         │                      │
├─────────────────────┼───────────────────┼─────────┼──────────────────────┤
│ total_amp3 (Dense)  │ (None, 1)         │     101 │ leaky_re_lu_109[0][… │
├─────────────────────┼───────────────────┼─────────┼──────────────────────┤
│ total_peak_number3  │ (None, 1)         │     101 │ leaky_re_lu_110[0][… │
│ (Dense)             │                   │         │                      │
└─────────────────────┴───────────────────┴─────────┴──────────────────────┘
 Total params: 264,935 (1.01 MB)
 Trainable params: 254,923 (995.79 KB)
 Non-trainable params: 10,012 (39.11 KB)
